…
2019-04-17 18:59:54,079 - INFO - allennlp.common.params - trainer.optimizer.infer_type_and_cast = True
2019-04-17 18:59:54,080 - INFO - allennlp.common.params - Converting Params object to dict; logging of default values will not occur when dictionary parameters are used subsequently.
2019-04-17 18:59:54,080 - INFO - allennlp.common.params - CURRENTLY DEFINED PARAMETERS: 
_________________________________________________________________
Layer (type)                 Output Shape              Param #   
=================================================================
conv2d_1 (Conv2D)            (None, 528, 698, 64)      1792      
_________________________________________________________________
conv2d_2 (Conv2D)            (None, 526, 696, 64)      36928     
_________________________________________________________________
max_pooling2d_1 (MaxPooling2 (None, 263, 348, 64)      0         
_________________________________________________________________
conv2d_3 (Conv2D)            (None, 261, 346, 128)     73856     
_________________________________________________________________
conv2d_4 (Conv2D)            (None, 259, 344, 128)     147584    
_________________________________________________________________
average_pooling2d_1 (Average (None, 13, 18, 128)       0         
_________________________________________________________________
flatten_1 (Flatten)          (None, 29952)             0         
=================================================================
Total params: 260,160
Trainable params: 260,160
Non-trainable params: 0
_________________________________________________________________
